…
pe": [[100, 32, 112, 112]], "num_parameters": [864]}, {"name": "features.0.1", "id": 5139149600, "class_name": "BatchNorm2d(32, eps=1e-05, momentum=0.1, affine=True, track_running_stats=True)", "parameters": [["weight", [32]], ["bias", [32]]], "output_shape": [[100, 32, 112, 112]], "num_parameters": [32, 32]}, {"name": "features.0.2", "id": 5135380776, "class_name": "ReLU6(inplace=True)", "parameters": [], "output_shape": [[100, 32, 112, 112]], "num_parameters": []}, {"name": "features.1", "id": 5139152232, "class_name": "InvertedResidual(\n  (conv): Sequential(\n    (0): ConvBNReLU(\n      (0): Conv2d(32, 32, kernel_size=(3, 3), stride=(1, 1), padding=(1, 1), groups=32, bias=False)\n      (1): BatchNorm2d(32, eps=1e-05, momentum=0.1, affine=True, track_running_stats=True)\n      (2): ReLU6(inplace=True)\n    )\n    (1): Conv2d(32, 16, kernel_size=(1, 1), stride=(1, 1), bias=False)\n    (2): BatchNorm2d(16, eps=1e-05, momentum=0.1, affine=True, track_running_stats=True)\n  )\n)", "parameters": [["conv.0.0.weight", [32, 1, 3, 3]], ["conv.0.1.weight", [32]], ["conv.0.1.bias", [32]], ["conv.1.weight", [16, 32, 1, 1]], ["conv.2.weight", [16]], ["conv.2.bias", [16]]], "output_shape": [[100, 16, 112, 112]], "num_parameters": [288, 32, 32, 512, 16, 16]}, {"name": "features.2", "id": 5139150720, "class_name": "InvertedResidual(\n  (conv): Sequential(\n    (0): ConvBNReLU(\n      (0): Conv2d(16, 96, kernel_size=(1, 1), stride=(1, 1), bias=False)\n      (1): BatchNorm2d(96, eps=1e-05, momentum=0.1, affine=True, track_running_stats=True)\n      (2): ReLU6(inplace=True)\n    )\n    (1): ConvBNReLU(\n      (0): Conv2d(96, 96, kernel_size=(3, 3), stride=(2, 2), padding=(1, 1), groups=96, bias=False)\n      (1): BatchNorm2d(96, eps=1e-05, momentum=0.1, affine=True, track_running_stats=True)\n      (2): ReLU6(inplace=True)\n    )\n    (2): Conv2d(96, 24, kernel_size=(1, 1), stride=(1, 1), bias=False)\n    (3): BatchNorm2d(24, eps=1e-05, momentum=0.1, affine=True, track_running_stats=True)\n  )\n)", "parameters": [["conv.0.0.weight", [96, 16, 1, 1]], ["conv.0.1.weight", [96]], ["conv.0.1.bias", [96]], ["conv.1.0.weight", [96, 1, 3, 3]], ["conv.1.1.weight", [96]], ["conv.1.1.bias", [96]], ["conv.2.weight", [24, 96, 1, 1]], ["conv.3.weight", [24]], ["conv.3.bias", [24]]], "output_shape": [[100, 24, 56, 56]], "num_parameters": [1536, 96, 96, 864, 96, 96, 2304, 24, 24]}, {"name": "features.3", "id": 5139151952, "class_name": "InvertedResidual(\n  (conv): Sequential(\n    (0): ConvBNReLU(\n      (0): Conv2d(24, 144, kernel_size=(1, 1), stride=(1, 1), bias=False)\n      (1): BatchNorm2d(144, eps=1e-05, momentum=0.1, affine=True, track_running_stats=True)\n      (2): ReLU6(inplace=True)\n    )\n    (1): ConvBNReLU(\n      (0): Conv2d(144, 144, kernel_size=(3, 3), stride=(1, 1), padding=(1, 1), groups=144, bias=False)\n      (1): BatchNorm2d(144, eps=1e-05, momentum=0.1, affine=True, track_running_stats=True)\n      (2): ReLU6(inplace=True)\n    )\n    (2): Conv2d(144, 24, kernel_size=(1, 1), stride=(1, 1), bias=False)\n    (3): BatchNorm2d(24, eps=1e-05, momentum=0.1, affine=True, track_running_stats=True)\n  )\n)", "parameters": [["conv.0.0.weight", [144, 24, 1, 1]], ["conv.0.1.weight", [144]], ["conv.0.1.bias", [144]], ["conv.1.0.weight", [144, 1, 3, 3]], ["conv.1.1.weight", [144]], ["conv.1.1.bias", [144]], ["conv.2.weight", [24, 144, 1, 1]], ["conv.3.weight", [24]], ["conv.3.bias", [24]]], "output_shape": [[100, 24, 56, 56]], "num_parameters": [3456, 144, 144, 1296, 144, 144, 3456, 24, 24]}, {"name": "features.4", "id": 5145542840, "class_name": "InvertedResidual(\n  (conv): Sequential(\n    (0): ConvBNReLU(\n      (0): Conv2d(24, 144, kernel_size=(1, 1), stride=(1, 1), bias=False)\n      (1): BatchNorm2d(144, eps=1e-05, momentum=0.1, affine=True, track_running_stats=True)\n      (2): ReLU6(inplace=True)\n    )\n    (1): ConvBNReLU(\n      (0): Conv2d(144, 144, kernel_size=(3, 3), stride=(2, 2), padding=(1, 1), groups=144, bias=False)\n      (1): BatchNorm2d(144, eps=1e-05, momentum=0.1, affine=True, track_running_stats=True)\n      (2): ReLU6(inplace=True)\n    )\n    (2): Conv2d(144, 32, kernel_size=(1, 1), stride=(1, 1), bias=False)\n    (3): BatchNorm2d(32, eps=1e-05, momentum=0.1, affine=True, track_running_stats=True)\n  )\n)", "parameters": [["conv.0.0.weight", [144, 24, 1, 1]], ["conv.0.1.weight", [144]], ["conv.0.1.bias", [144]], ["conv.1.0.weight", [144, 1, 3, 3]], ["conv.1.1.weight", [144]], ["conv.1.1.bias", [144]], ["conv.2.weight", [32, 144, 1, 1]], ["conv.3.weight", [32]], ["conv.3.bias", [32]]], "output_shape": [[100, 32, 28, 28]], "num_parameters": [3456, 144, 144, 1296, 144, 144, 4608, 32, 32]}, {"name": "features.5", "id": 5145544072, "class_name": "InvertedResidual(\n  (conv): Sequential(\n    (0): ConvBNReLU(\n      (0): Conv2d(32, 192, kernel_size=(1, 1), stride=(1, 1), bias=False)\n      (1): BatchNorm2d(192, eps=1e-05, momentum=0.1, affine=True, track_running_stats=True)\n      (2): ReLU6(inplace=True)\n    )\n    (1): ConvBNReLU(\n      (0): Conv2d(192, 192, kernel_size=(3, 3), stride=(1, 1), padding=(1, 1), groups=192, bias=False)\n      (1): BatchNorm2d(192, eps=1e-05, momentum=0.1, affine=True, track_running_stats=True)\n      (2): ReLU6(inplace=True)\n    )\n    (2): Conv2d(192, 32, kernel_size=(1, 1), stride=(1, 1), bias=False)\n    (3): BatchNorm2d(32, eps=1e-05, momentum=0.1, affine=True, track_running_stats=True)\n  )\n)", "parameters": [["conv.0.0.weight", [192, 32, 1, 1]], ["conv.0.1.weight", [192]], ["conv.0.1.bias", [192]], ["conv.1.0.weight", [192, 1, 3, 3]], ["conv.1.1.weight", [192]], ["conv.1.1.bias", [192]], ["conv.2.weight", [32, 192, 1, 1]], ["conv.3.weight", [32]], ["conv.3.bias", [32]]], "output_shape": [[100, 32, 28, 28]], "num_parameters": [6144, 192, 192, 1728, 192, 192, 6144, 32, 32]}, {"name": "features.6", "id": 5145545304, "class_name": "InvertedResidual(\n  (conv): Sequential(\n    (0): ConvBNReLU(\n      (0): Conv2d(32, 192, kernel_size=(1, 1), stride=(1, 1), bias=False)\n      (1): BatchNorm2d(192, eps=1e-05, momentum=0.1, affine=True, track_running_stats=True)\n      (2): ReLU6(inplace=True)\n    )\n    (1): ConvBNReLU(\n      (0): Conv2d(192, 192, kernel_size=(3, 3), stride=(1, 1), padding=(1, 1), groups=192, bias=False)\n      (1): BatchNorm2d(192, eps=1e-05, momentum=0.1, affine=True, track_running_stats=True)\n      (2): ReLU6(inplace=True)\n    )\n    (2): Conv2d(192, 32, kernel_size=(1, 1), stride=(1, 1), bias=False)\n    (3): BatchNorm2d(32, eps=1e-05, momentum=0.1, affine=True, track_running_stats=True)\n  )\n)", "parameters": [["conv.0.0.weight", [192, 32, 1, 1]], ["conv.0.1.weight", [192]], ["conv.0.1.bias", [192]], ["conv.1.0.weight", [192, 1, 3, 3]], ["conv.1.1.weight", [192]], ["conv.1.1.bias", [192]], ["conv.2.weight", [32, 192, 1, 1]], ["conv.3.weight", [32]], ["conv.3.bias", [32]]], "output_shape": [[100, 32, 28, 28]], "num_parameters": [6144, 192, 192, 1728, 192, 192, 6144, 32, 32]}, {"name": "features.7", "id": 5145546536, "class_name": "InvertedResidual(\n  (conv): Sequential(\n    (0): ConvBNReLU(\n      (0): Conv2d(32, 192, kernel_size=(1, 1), stride=(1, 1), bias=False)\n      (1): BatchNorm2d(192, eps=1e-05, momentum=0.1, affine=True, track_running_stats=True)\n      (2): ReLU6(inplace=True)\n    )\n    (1): ConvBNReLU(\n      (0): Conv2d(192, 192, kernel_size=(3, 3), stride=(2, 2), padding=(1, 1), groups=192, bias=False)\n      (1): BatchNorm2d(192, eps=1e-05, momentum=0.1, affine=True, track_running_stats=True)\n      (2): ReLU6(inplace=True)\n    )\n    (2): Conv2d(192, 64, kernel_size=(1, 1), stride=(1, 1), bias=False)\n    (3): BatchNorm2d(64, eps=1e-05, momentum=0.1, affine=True, track_running_stats=True)\n  )\n)", "parameters": [["conv.0.0.weight", [192, 32, 1, 1]], ["conv.0.1.weight", [192]], ["conv.0.1.bias", [192]], ["conv.1.0.weight", [192, 1, 3, 3]], ["conv.1.1.weight", [192]], ["conv.1.1.bias", [192]], ["conv.2.weight", [64, 192, 1, 1]], ["conv.3.weight", [64]], ["conv.3.bias", [64]]], "output_shape": [[100, 64, 14, 14]], "num_parameters": [6144, 192, 192, 1728, 192, 192, 12288, 64, 64]}, {"name": "features.8", "id": 5145678904, "class_name": "InvertedResidual(\n  (conv): Sequential(\n    (0): ConvBNReLU(\n      (0): Conv2d(64, 384, kernel_size=(1, 1), stride=(1, 1), bias=False)\n      (1): BatchNorm2d(384, eps=1e-05, momentum=0.1, affine=True, track_running_stats=True)\n      (2): ReLU6(inplace=True)\n    )\n    (1): ConvBNReLU(\n      (0): Conv2d(384, 384, kernel_size=(3, 3), stride=(1, 1), padding=(1, 1), groups=384, bias=False)\n      (1): BatchNorm2d(384, eps=1e-05, momentum=0.1, affine=True, track_running_stats=True)\n      (2): ReLU6(inplace=True)\n    )\n    (2): Conv2d(384, 64, kernel_size=(1, 1), stride=(1, 1), bias=False)\n    (3): BatchNorm2d(64, eps=1e-05, momentum=0.1, affine=True, track_running_stats=True)\n  )\n)", "parameters": [["conv.0.0.weight", [384, 64, 1, 1]], ["conv.0.1.weight", [384]], ["conv.0.1.bias", [384]], ["conv.1.0.weight", [384, 1, 3, 3]], ["conv.1.1.weight", [384]], ["conv.1.1.bias", [384]], ["conv.2.weight", [64, 384, 1, 1]], ["conv.3.weight", [64]], ["conv.3.bias", [64]]], "output_shape": [[100, 64, 14, 14]], "num_parameters": [24576, 384, 384, 3456, 384, 384, 24576, 64, 64]}, {"name": "features.9", "id": 5145680136, "class_name": "InvertedResidual(\n  (conv): Sequential(\n    (0): ConvBNReLU(\n      (0): Conv2d(64, 384, kernel_size=(1, 1), stride=(1, 1), bias=False)\n      (1): BatchNorm2d(384, eps=1e-05, momentum=0.1, affine=True, track_running_stats=True)\n      (2): ReLU6(inplace=True)\n    )\n    (1): ConvBNReLU(\n      (0): Conv2d(384, 384, kernel_size=(3, 3), stride=(1, 1), padding=(1, 1), groups=384, bias=False)\n      (1): BatchNorm2d(384, eps=1e-05, momentum=0.1, affine=True, track_running_stats=True)\n      (2): ReLU6(inplace=True)\n    )\n    (2): Conv2d(384, 64, kernel_size=(1, 1), stride=(1, 1), bias=False)\n    (3): BatchNorm2d(64, eps=1e-05, momentum=0.1, affine=True, track_running_stats=True)\n  )\n)", "parameters": [["conv.0.0.weight", [384, 64, 1, 1]], ["conv.0.1.weight", [384]], ["conv.0.1.bias", [384]], ["conv.1.0.weight", [384, 1, 3, 3]], ["conv.1.1.weight", [384]], ["conv.1.1.bias", [384]], ["conv.2.weight", [64, 384, 1, 1]], ["conv.3.weight", [64]], ["conv.3.bias", [64]]], "output_shape": [[100, 64, 14, 14]], "num_parameters": [24576, 384, 384, 3456, 384, 384, 24576, 64, 64]}, {"name": "features.10", "id": 5145681368, "class_name": "InvertedResidual(\n  (conv): Sequential(\n    (0): ConvBNReLU(\n      (0): Conv2d(64, 384, kernel_size=(1, 1), stride=(1, 1), bias=False)\n      (1): BatchNorm2d(384, eps=1e-05, momentum=0.1, affine=True, track_running_stats=True)\n      (2): ReLU6(inplace=True)\n    )\n    (1): ConvBNReLU(\n      (0): Conv2d(384, 384, kernel_size=(3, 3), stride=(1, 1), padding=(1, 1), groups=384, bias=False)\n      (1): BatchNorm2d(384, eps=1e-05, momentum=0.1, affine=True, track_running_stats=True)\n      (2): ReLU6(inplace=True)\n    )\n    (2): Conv2d(384, 64, kernel_size=(1, 1), stride=(1, 1), bias=False)\n    (3): BatchNorm2d(64, eps=1e-05, momentum=0.1, affine=True, track_running_stats=True)\n  )\n)", "parameters": [["conv.0.0.weight", [384, 64, 1, 1]], ["conv.0.1.weight", [384]], ["conv.0.1.bias", [384]], ["conv.1.0.weight", [384, 1, 3, 3]], ["conv.1.1.weight", [384]], ["conv.1.1.bias", [384]], ["conv.2.weight", [64, 384, 1, 1]], ["conv.3.weight", [64]], ["conv.3.bias", [64]]], "output_shape": [[100, 64, 14, 14]], "num_parameters": [24576, 384, 384, 3456, 384, 384, 24576, 64, 64]}, {"name": "features.11", "id": 5145821928, "class_name": "InvertedResidual(\n  (conv): Sequential(\n    (0): ConvBNReLU(\n      (0): Conv2d(64, 384, kernel_size=(1, 1), stride=(1, 1), bias=False)\n      (1): BatchNorm2d(384, eps=1e-05, momentum=0.1, affine=True, track_running_stats=True)\n      (2): ReLU6(inplace=True)\n    )\n    (1): ConvBNReLU(\n      (0): Conv2d(384, 384, kernel_size=(3, 3), stride=(1, 1), padding=(1, 1), groups=384, bias=False)\n      (1): BatchNorm2d(384, eps=1e-05, momentum=0.1, affine=True, track_running_stats=True)\n      (2): ReLU6(inplace=True)\n    )\n    (2): Conv2d(384, 96, kernel_size=(1, 1), stride=(1, 1), bias=False)\n    (3): BatchNorm2d(96, eps=1e-05, momentum=0.1, affine=True, track_running_stats=True)\n  )\n)", "parameters": [["conv.0.0.weight", [384, 64, 1, 1]], ["conv.0.1.weight", [384]], ["conv.0.1.bias", [384]], ["conv.1.0.weight", [384, 1, 3, 3]], ["conv.1.1.weight", [384]], ["conv.1.1.bias", [384]], ["conv.2.weight", [96, 384, 1, 1]], ["conv.3.weight", [96]], ["conv.3.bias", [96]]], "output_shape": [[100, 96, 14, 14]], "num_parameters": [24576, 384, 384, 3456, 384, 384, 36864, 96, 96]}, {"name": "features.12", "id": 5145823160, "class_name": "InvertedResidual(\n  (conv): Sequential(\n    (0): ConvBNReLU(\n      (0): Conv2d(96, 576, kernel_size=(1, 1), stride=(1, 1), bias=False)\n      (1): BatchNorm2d(576, eps=1e-05, momentum=0.1, affine=True, track_running_stats=True)\n      (2): ReLU6(inplace=True)\n    )\n    (1): ConvBNReLU(\n      (0): Conv2d(576, 576, kernel_size=(3, 3), stride=(1, 1), padding=(1, 1), groups=576, bias=False)\n      (1): BatchNorm2d(576, eps=1e-05, momentum=0.1, affine=True, track_running_stats=True)\n      (2): ReLU6(inplace=True)\n    )\n    (2): Conv2d(576, 96, kernel_size=(1, 1), stride=(1, 1), bias=False)\n    (3): BatchNorm2d(96, eps=1e-05, momentum=0.1, affine=True, track_running_stats=True)\n  )\n)", "parameters": [["conv.0.0.weight", [576, 96, 1, 1]], ["conv.0.1.weight", [576]], ["conv.0.1.bias", [576]], ["conv.1.0.weight", [576, 1, 3, 3]], ["conv.1.1.weight", [576]], ["conv.1.1.bias", [576]], ["conv.2.weight", [96, 576, 1, 1]], ["conv.3.weight", [96]], ["conv.3.bias", [96]]], "output_shape": [[100, 96, 14, 14]], "num_parameters": [55296, 576, 576, 5184, 576, 576, 55296, 96, 96]}, {"name": "features.13", "id": 5145824392, "class_name": "InvertedResidual(\n  (conv): Sequential(\n    (0): ConvBNReLU(\n      (0): Conv2d(96, 576, kernel_size=(1, 1), stride=(1, 1), bias=False)\n      (1): BatchNorm2d(576, eps=1e-05, momentum=0.1, affine=True, track_running_stats=True)\n      (2): ReLU6(inplace=True)\n    )\n    (1): ConvBNReLU(\n      (0): Conv2d(576, 576, kernel_size=(3, 3), stride=(1, 1), padding=(1, 1), groups=576, bias=False)\n      (1): BatchNorm2d(576, eps=1e-05, momentum=0.1, affine=True, track_running_stats=True)\n      (2): ReLU6(inplace=True)\n    )\n    (2): Conv2d(576, 96, kernel_size=(1, 1), stride=(1, 1), bias=False)\n    (3): BatchNorm2d(96, eps=1e-05, momentum=0.1, affine=True, track_running_stats=True)\n  )\n)", "parameters": [["conv.0.0.weight", [576, 96, 1, 1]], ["conv.0.1.weight", [576]], ["conv.0.1.bias", [576]], ["conv.1.0.weight", [576, 1, 3, 3]], ["conv.1.1.weight", [576]], ["conv.1.1.bias", [576]], ["conv.2.weight", [96, 576, 1, 1]], ["conv.3.weight", [96]], ["conv.3.bias", [96]]], "output_shape": [[100, 96, 14, 14]], "num_parameters": [55296, 576, 576, 5184, 576, 576, 55296, 96, 96]}, {"name": "features.14", "id": 5139051464, "class_name": "InvertedResidual(\n  (conv): Sequential(\n    (0): ConvBNReLU(\n      (0): Conv2d(96, 576, kernel_size=(1, 1), stride=(1, 1), bias=False)\n      (1): BatchNorm2d(576, eps=1e-05, momentum=0.1, affine=True, track_running_stats=True)\n      (2): ReLU6(inplace=True)\n    )\n    (1): ConvBNReLU(\n      (0): Conv2d(576, 576, kernel_size=(3, 3), stride=(2, 2), padding=(1, 1), groups=576, bias=False)\n      (1): BatchNorm2d(576, eps=1e-05, momentum=0.1, affine=True, track_running_stats=True)\n      (2): ReLU6(inplace=True)\n    )\n    (2): Conv2d(576, 160, kernel_size=(1, 1), stride=(1, 1), bias=False)\n    (3): BatchNorm2d(160, eps=1e-05, momentum=0.1, affine=True, track_running_stats=True)\n  )\n)", "parameters": [["conv.0.0.weight", [576, 96, 1, 1]], ["conv.0.1.weight", [576]], ["conv.0.1.bias", [576]], ["conv.1.0.weight", [576, 1, 3, 3]], ["conv.1.1.weight", [576]], ["conv.1.1.bias", [576]], ["conv.2.weight", [160, 576, 1, 1]], ["conv.3.weight", [160]], ["conv.3.bias", [160]]], "output_shape": [[100, 160, 7, 7]], "num_parameters": [55296, 576, 576, 5184, 576, 576, 92160, 160, 160]}, {"name": "features.15", "id": 5146665256, "class_name": "InvertedResidual(\n  (conv): Sequential(\n    (0): ConvBNReLU(\n      (0): Conv2d(160, 960, kernel_size=(1, 1), stride=(1, 1), bias=False)\n      (1): BatchNorm2d(960, eps=1e-05, momentum=0.1, affine=True, track_running_stats=True)\n      (2): ReLU6(inplace=True)\n    )\n    (1): ConvBNReLU(\n      (0): Conv2d(960, 960, kernel_size=(3, 3), stride=(1, 1), padding=(1, 1), groups=960, bias=False)\n      (1): BatchNorm2d(960, eps=1e-05, momentum=0.1, affine=True, track_running_stats=True)\n      (2): ReLU6(inplace=True)\n    )\n    (2): Conv2d(960, 160, kernel_size=(1, 1), stride=(1, 1), bias=False)\n    (3): BatchNorm2d(160, eps=1e-05, momentum=0.1, affine=True, track_running_stats=True)\n  )\n)", "parameters": [["conv.0.0.weight", [960, 160, 1, 1]], ["conv.0.1.weight", [960]], ["conv.0.1.bias", [960]], ["conv.1.0.weight", [960, 1, 3, 3]], ["conv.1.1.weight", [960]], ["conv.1.1.bias", [960]], ["conv.2.weight", [160, 960, 1, 1]], ["conv.3.weight", [160]], ["conv.3.bias", [160]]], "output_shape": [[100, 160, 7, 7]], "num_parameters": [153600, 960, 960, 8640, 960, 960, 153600, 160, 160]}, {"name": "features.16", "id": 5146666488, "class_name": "InvertedResidual(\n  (conv): Sequential(\n    (0): ConvBNReLU(\n      (0): Conv2d(160, 960, kernel_size=(1, 1), stride=(1, 1), bias=False)\n      (1): BatchNorm2d(960, eps=1e-05, momentum=0.1, affine=True, track_running_stats=True)\n      (2): ReLU6(inplace=True)\n    )\n    (1): ConvBNReLU(\n      (0): Conv2d(960, 960, kernel_size=(3, 3), stride=(1, 1), padding=(1, 1), groups=960, bias=False)\n      (1): BatchNorm2d(960, eps=1e-05, momentum=0.1, affine=True, track_running_stats=True)\n      (2): ReLU6(inplace=True)\n    )\n    (2): Conv2d(960, 160, kernel_size=(1, 1), stride=(1, 1), bias=False)\n    (3): BatchNorm2d(160, eps=1e-05, momentum=0.1, affine=True, track_running_stats=True)\n  )\n)", "parameters": [["conv.0.0.weight", [960, 160, 1, 1]], ["conv.0.1.weight", [960]], ["conv.0.1.bias", [960]], ["conv.1.0.weight", [960, 1, 3, 3]], ["conv.1.1.weight", [960]], ["conv.1.1.bias", [960]], ["conv.2.weight", [160, 960, 1, 1]], ["conv.3.weight", [160]], ["conv.3.bias", [160]]], "output_shape": [[100, 160, 7, 7]], "num_parameters": [153600, 960, 960, 8640, 960, 960, 153600, 160, 160]}, {"name": "features.17", "id": 5146667720, "class_name": "InvertedResidual(\n  (conv): Sequential(\n    (0): ConvBNReLU(\n      (0): Conv2d(160, 960, kernel_size=(1, 1), stride=(1, 1), bias=False)\n      (1): BatchNorm2d(960, eps=1e-05, momentum=0.1, affine=True, track_running_stats=True)\n      (2): ReLU6(inplace=True)\n    )\n    (1): ConvBNReLU(\n      (0): Conv2d(960, 960, kernel_size=(3, 3), stride=(1, 1), padding=(1, 1), groups=960, bias=False)\n      (1): BatchNorm2d(960, eps=1e-05, momentum=0.1, affine=True, track_running_stats=True)\n      (2): ReLU6(inplace=True)\n    )\n    (2): Conv2d(960, 320, kernel_size=(1, 1), stride=(1, 1), bias=False)\n    (3): BatchNorm2d(320, eps=1e-05, momentum=0.1, affine=True, track_running_stats=True)\n  )\n)", "parameters": [["conv.0.0.weight", [960, 160, 1, 1]], ["conv.0.1.weight", [960]], ["conv.0.1.bias", [960]], ["conv.1.0.weight", [960, 1, 3, 3]], ["conv.1.1.weight", [960]], ["conv.1.1.bias", [960]], ["conv.2.weight", [320, 960, 1, 1]], ["conv.3.weight", [320]], ["conv.3.bias", [320]]], "output_shape": [[100, 320, 7, 7]]
…
